…
          "output_type": "execute_result",
          "data": {
            "text/plain": [
              "==================================================================================================================================\n",
              "Layer (type (var_name))                            Input Shape          Output Shape         Param #              Trainable\n",
              "==================================================================================================================================\n",
              "TransformerEncoderBlock (TransformerEncoderBlock)  [1, 197, 768]        [1, 197, 768]        --                   True\n",
              "MultiheadSelfAttentionBlock (msa_block)          [1, 197, 768]        [1, 197, 768]        --                   True\n",
              "    LayerNorm (layer_norm)                      [1, 197, 768]        [1, 197, 768]        1,536                True\n",
              "    MultiheadAttention (multihead_attn)         --                   [1, 197, 768]        2,362,368            True\n",
              "MLPBlock (mlp_block)                             [1, 197, 768]        [1, 197, 768]        --                   True\n",
              "    LayerNorm (layer_norm)                      [1, 197, 768]        [1, 197, 768]        1,536                True\n",
              "    Sequential (mlp)                            [1, 197, 768]        [1, 197, 768]        --                   True\n",
              "        Linear (0)                             [1, 197, 768]        [1, 197, 3072]       2,362,368            True\n",
              "        GELU (1)                               [1, 197, 3072]       [1, 197, 3072]       --                   --\n",
              "        Dropout (2)                            [1, 197, 3072]       [1, 197, 3072]       --                   --\n",
              "        Linear (3)                             [1, 197, 3072]       [1, 197, 768]        2,360,064            True\n",
              "        Dropout (4)                            [1, 197, 768]        [1, 197, 768]        --                   --\n",
              "==================================================================================================================================\n",
              "Total params: 7,087,872\n",
              "Trainable params: 7,087,872\n",
              "Non-trainable params: 0\n",
              "Total mult-adds (M): 4.73\n",
              "==================================================================================================================================\n",
…
